model/model.pth (torch, 17216 bytes, 4 tensors)

linear1.weight f4 [256, 11]
00000000: 71a0 653e 8770 2e3e 9d3c ae3d 1b2e 85be
00000010: cc53 2e3e f477 903e 97a2 133d b05d 8f3e
00000020: bfc0 33be a68b 8fbe f10a 3dbd acd3 2e3e
00000030: 1b6c 533e 7fbe 6d3e dd92 633d 4104 14be
00000040: 9e59 883e 188f 643e 0cde acbd fc8c 3dbe
00000050: 80b3 8fbd fdf7 8f3e 5e4a 64be 1451 8c3d
00000060: 9699 94be bd59 26bd 6ff6 903e d901 303b
00000070: 2de4 80bd 158e 1bbe 42d7 873e efc1 72be
00000080: 56e7 45be 6ec3 84be 849f ccbd cb81 863e
00000090: 05ee 24be 9c97 ad3d 45b8 19be 1086 21be
000000a0: 6c21 903d b8ba 0e3d 81a4 073e e216 e53d
000000b0: 92c6 533c da71 533d 9f00 373e 08da afbd
000000c0: 3aa9 acbd 7ac4 933e 2ccc 7e3c 9e41 3d3d
000000d0: d3dc dcbc c9c4 8dbc 94f0 193e 984a 443e
000000e0: d2a6 0f3e f077 87bc a90b 8bbe 7435 223e
000000f0: bb9e 7f3e 11d2 92be 7792 14be e0aa 7fbe
00000100: 8e2f f23d 77c2 56be 80d6 e1bc 0cc5 80be
00000110: 1631 2ebe f83b 37be 8ea9 833d f7c5 7ebe
00000120: 81e5 9a3c ef79 ba3d 933f 99be 5d13 bdbd
00000130: 471e a1be 00ae 293b af08 623e c4d2 e73d
00000140: 244f 6dbe 959d 81be 03ad e1bd 1459 1abe
00000150: 09fb df3c 7a33 0ebe d0eb 2b3e 1afd 0ebe
00000160: 9c52 9db9 7f20 8cbe 1a45 203e a9d6 96be
00000170: 63a6 8e3e 2e2a 523e ab03 6b3d 3c73 4abe
00000180: 0f04 d7bd e66f 5d3e b4e6 8b3e 5960 853e
00000190: 56c3 80be 25cc 003e 0fd4 9abe 6434 093e
000001a0: e920 ea3d 20ae 843e 2a6a 95bd 1dea 53bd
000001b0: 893f 6d3d 8faa 8c3e fc49 9c3d fb63 533d
000001c0: d7ac 85be dc25 443e 043a 8d3e 4d0a b9bd
000001d0: 5b5d 653e 7471 90be 225d d23d 9256 ed3d
000001e0: 65bf 583e 80c0 34bc 38e8 583d 8034 b93c
000001f0: d616 56be eaa7 9fbd b7ab 0c3c f2e6 6cbe
00000200: 585b 29be b100 4c3e 1457 d3bd 8f89 87be
00000210: 0000 c9bb aa58 8b3e 7458 243e be6b 2abe
00000220: 3452 8bbe 8046 33bd 1bf5 a83d 2f88 35be
00000230: 3572 1abe 9c1a 1bbd bc28 edbd 708b 9dbd
00000240: cead 4ebe 9bdb 1ebe 57d0 393d 21e3 b53d
00000250: 890e 523e 754e 373e dacd 5abe d911 803e
00000260: cfdb 98be 5b69 5ebe 9ae0 1abe af8a 843e
00000270: f360 233e 0b9e 79be 7ea6 563e 1a65 4cbe
00000280: 46a9 803e 7735 3cbd d410 5cbd 7804 88bd
00000290: d392 ff3d ee2e 8d3e b69f 87bd c266 34be
000002a0: f323 0ebc b215 00be 207a 263c 69fc 293e
000002b0: 63a1 f23d 5479 983e 7e60 483e e121 96be
000002c0: 583e 91be 24bc 7d3e ac64 803e 67ff 13be
000002d0: f389 09be e76b 83be 5e82 21bd a762 943e
000002e0: 8e48 83be 8ed0 9ebe 5c8f 003e a7ed c43d
000002f0: f676 f33d 85ee 25be 4280 853d 2daa 633e
00000300: b721 6e3e 5119 09be 6f4f 9fbe c518 babd
00000310: 9c21 313e 53d7 01be 2941 433e 9a60 833e
00000320: 88e9 0fbe 20cb 9dbe 9e28 14be dc36 d5bd
00000330: c3f9 18be 7e8c 0e3e 19ff 213e 01d8 ea3d
00000340: ce56 35bd b39e 06be 9964 093e 8050 3f3d
00000350: c6b3 953e 46a1 1bbe 4bfa f23d c829 fc3d
00000360: 7b2f b9bc 5117 213b fdd0 253d 55dc 0c3e
00000370: 1b7d 083e eb5b 6a3e 9ec7 4fbe 0f8b 193e
00000380: 59d7 a6bc b224 963e 5c45 fd3d ca7c 413d
00000390: bb78 eebc 5c88 103e 5cec f8bd b184 00be
000003a0: bbed 6e3e e9a0 493e f3e6 1abe c8c6 503c
000003b0: 20ca cc3d 17fc 8a3e 8361 753d 2082 513e
000003c0: d02e 33bd a50c 263e 16a5 673e 5bcd 6f3e
000003d0: d62c 91bc 0af4 b43d 731a 783d 4e8e 8bbe
000003e0: aba2 babc c81b 723e 660a 6a3d 272c a0bd
000003f0: f96c ed3d 9305 7abe d016 363e 487f 043d
0.22424485 0.17035113 0.08507655 -0.26011738 0.17024153 0.28216517 0.03604373 0.28001165
-0.17553996 -0.2803623 -0.046153013 0.17072934 0.20646708 0.232172 0.05555998 -0.14454748
0.26630872 0.22320211 -0.084407896 -0.18510813 -0.07016659 0.28118888 -0.22293994 0.06851402
-0.29023427 -0.040612925 0.28313014 0.002685657 -0.06293521 -0.15190919 0.26531416 -0.23706792
-0.19326529 -0.2593035 -0.09991363 0.262709 -0.16106422 0.08476183 -0.150117 -0.15773797
0.07037625 0.034846038 0.13246347 0.11186005 0.012925761 0.05162225 0.1787133 -0.08586508
-0.08430715 0.28860837 0.015551608 0.046205156 -0.026960766 -0.017305749 0.1503318 0.1916908
0.1402848 -0.016536683 -0.27157333 0.15840703 0.24962895 -0.28675893 -0.14508997 -0.24967527
0.118254766 -0.2097262 -0.027568102 -0.25150335 -0.17010912 -0.1789397 0.06428824 -0.24880205
0.018908264 0.09105288 -0.29931316 -0.09232209 -0.31468412 0.0025891066 0.22073625 0.11319497
-0.23174721 -0.25315538 -0.110193275 -0.15073043 0.027341383 -0.13886824 0.16789174 -0.13963738
-0.00030006922 -0.27368543 0.1565136 -0.29460648 0.27861318 0.20523903 0.057376545 -0.19770521
-0.10498821 0.21624717 0.2732445 0.2605007 -0.2514903 0.12577875 -0.30239913 0.13398892
0.11432058 0.25914097 -0.0729564 -0.05173694 0.05792192 0.27473876 0.07631299 0.05160902
-0.2610843 0.19155067 0.27583325 -0.09035168 0.22398894 -0.28211558 0.1027167 0.115887776
0.21166761 -0.011032224 0.052955836 0.022608042 -0.20907149 -0.07795699 0.008585862 -0.23134974
-0.16538751 0.19922139 -0.10319343 -0.26472136 -0.006134033 0.27216083 0.16049367 -0.16642663
-0.27211154 -0.043768406 0.08249875 -0.17727731 -0.15082629 -0.037867174 -0.11580035 -0.07692611
-0.20183489 -0.1551346 0.045364704 0.08881212 0.20513357 0.17901023 -0.21367589 0.25013617
-0.298552 -0.21719877 -0.15124741 0.25887057 0.15954952 -0.24376695 0.20961949 -0.19960442
0.25129145 -0.045949426 -0.053726986 -0.06641477 0.12479176 0.27574867 -0.06622259 -0.17617324
-0.008675563 -0.12508276 0.010160953 0.16600193 0.11847188 0.29780066 0.19568059 -0.29322723
-0.28367877 0.24778801 0.25076807 -0.14452897 -0.1343153 -0.2566826 -0.03943097 0.28981516
-0.25641292 -0.3101849 0.12554687 0.09615641 0.118879244 -0.16204269 0.06518604 0.22232886
0.23255049 -0.13388564 -0.3111529 -0.09086756 0.17297977 -0.12679796 0.19067825 0.2565964
-0.14053929 -0.30819035 -0.14468619 -0.10410854 -0.14939027 0.13920781 0.15819968 0.11466981
-0.044272237 -0.13146476 0.13417281 0.04670763 0.2923872 -0.1519824 0.11864146 0.12312657
-0.022605648 0.0024580548 0.04048251 0.13755925 0.13328974 0.22886626 -0.20290992 0.14994453
-0.020366358 0.2932487 0.12366745 0.04723815 -0.029110303 0.14114517 -0.12154457 -0.12550618
0.23332874 0.19690289 -0.15127163 0.012742706 0.0999949 0.27145454 0.059907448 0.20459795
-0.043745816 0.16215761 0.22621569 0.2341818 -0.017721575 0.08835609 0.0605721 -0.27257007
-0.022782644 0.2364341 0.057138823 -0.078209214 0.115930505 -0.24416189 0.1778214 0.032347947

linear1.bias f4 [256]
00000000: 66a5 66be 2862 103d c1f6 aebd 62b3 543e
00000010: 2d52 39be 5e99 b2bd 0eb7 e73d 7348 1c3d
00000020: cd51 b23b 6b1c cc3c c899 593c 91bc c8bd
00000030: 7b50 fd3b ba2b 653e 1174 72be b7f9 e3bd
00000040: 2f26 ac3d 75a6 3c3e a4f4 44bd c3e0 943e
00000050: aeb7 61be 7130 dabc 1737 34be e3c3 8f3b
00000060: 6c8e 78be 3711 d9bd 149f 84bd 5ffd 353d
00000070: 910c 6ebe b3aa 63bd dcb8 5bbd d11b 883e
00000080: 3874 613e 6d31 17be bd4a 853d e470 d63d
00000090: ea2f 93be 12c1 eb3d 7878 143e e3e4 03be
000000a0: d296 213d a5a9 b5bc 59b5 dbbc 49f4 0b3e
000000b0: fe4c 4cbe d5df 61be 3937 96be 5e40 8d3e
000000c0: 30f2 fabd a85d 5a3e 3495 5e3e b9fd 30be
000000d0: 4f15 973e 0811 2b3d e707 a8bd 4c26 aa3c
000000e0: e2da 77be 5ed4 3d3e 7f83 05bd 0e4c 813e
000000f0: 7e03 cbbc 7596 7dbb 95fb b33b d34f d4bc
00000100: 3952 8abe f28f 81be 36c2 79be 8095 81be
00000110: 6c89 323e d328 b3bd 0e46 933d 71cb 913e
00000120: 12f4 79bd 631c 4a3e 6d10 12be 3067 883a
00000130: c7cd 94bd 67d4 70be afc5 8dbb 3838 3a3e
00000140: e401 8a3e 1f78 703d 2dd4 5cbe 574a 01be
00000150: a7c4 9c3d a04f 0d3e 6cda 88be 1686 63be
00000160: 51b4 d33c 51ad 8cbe f136 f5bd 748c bebd
00000170: abad 9f3e a638 7fbe 1fd0 393e 2585 6e3e
00000180: 6042 86bd 249d 75be 9a11 05be e9cb 243e
00000190: fcf1 8cbe 392f f5bd 49f7 933e e37c 98bd
000001a0: 1d23 923e 4a41 183d 257b 87be 5309 85bb
000001b0: 47b4 923e a407 b7bb 8c62 bdbd 79be 8fbe
000001c0: d261 9c3d 5d3d 34be d85f 98be 5e5a 07be
000001d0: 677b 903e fcd6 63be 0846 bcbd 51e4 403d
000001e0: e337 a83b f943 b3bd 0c7b 0ebe 2c09 8fbe
000001f0: db04 c23d 5380 143e 6f64 93be ee07 13be
00000200: 86af 73be bc07 42be 8d33 27be 2da3 6dbe
00000210: d8c5 0f3e c075 823e ba37 9bbd ca66 523e
00000220: ec56 63be 4943 62be aa20 92be 401e 7abd
00000230: 6f3f 303e 3955 00be 3293 6ebe 1c48 6d3e
00000240: d3a4 1e3e 14b7 813e 1236 1cbe 1667 003e
00000250: cecb 823e 493a 6e3e f06a 17be 4cfb 913d
00000260: 1d7e b33d e9fc 0e3e d939 43be c9bf 49bd
00000270: 814e 6f3e a65b cabc b151 1f3e f693 563e
00000280: 8695 9d3e a35e 4f3d 5933 8bbe 072b 4fbb
00000290: e4eb 85be 9be1 943d c039 283e 21e0 f3bd
000002a0: d63d cdbd d0b0 02be db51 42be d1c1 84be
000002b0: 5393 573e 57d4 e33d 64c8 403c 5e16 77be
000002c0: 2d00 1cbc b894 8a3e b9d8 9b3e 1fa9 10bc
000002d0: d666 06be c07d 013d 325f 81bd 01ab 8dbe
000002e0: ae03 cebd 16e7 86be a8bd 7d3e 1b04 543e
000002f0: 212f 86bd 60cb 9c3d 4a59 673c 4202 1bbd
00000300: cbf2 843d ae73 acbd 681a 5dbe f51f ec3d
00000310: 2e44 1a3d 1642 823e 9a20 b53d 9503 473e
00000320: 78d7 aabc d4ce 1dbe 1eb8 953d 2fcd 6cbe
00000330: 28d1 0bbe 95bf 8bbe b441 52bd a6e1 e9bc
00000340: 2bc6 113e aa38 0c3e fe8b 3dbd c234 8d3e
00000350: 884b 80be 65b7 f3bd 2734 013e 3f5c 6c3e
00000360: a4a8 0e3e a7b0 143e b84e d2bd d99b 2dbd
00000370: c757 703e c867 26be 9899 dfbd a0c5 803d
00000380: 8807 1d3e 8af5 96be a5fc 093e 65d9 47be
00000390: 4cb0 fdbd b22d 9abe 8678 58be 3d0d bd3d
000003a0: 8fc0 39be a0be b03c 78f4 0bbe a8a5 6fbd
000003b0: dee4 6b3e bd31 233e 79c8 54bd 5f45 343d
000003c0: 8e7e 09bd 2cad a3bb a698 82be 0827 11be
000003d0: fbe8 b9bd 62b9 b2bd beb8 79be 2383 51bd
000003e0: 046b c4bd 63a7 8e3e c62b 353e 1ed1 043e
000003f0: 9b03 2ebe 226d 6f3e b071 57be de27 163e
-0.22524032 0.03524986 -0.08543158 0.20771554 -0.18097754 -0.08720659 0.11314212 0.03815503
0.0054418803 0.024915894 0.013281293 -0.09801591 0.0077305413 0.22379962 -0.23677088 -0.11131614
0.084057204 0.18422873 -0.04808487 0.2907773 -0.22042724 -0.026634427 -0.1759914 0.004387365
-0.2427308 -0.105989866 -0.06475654 0.044431087 -0.23246981 -0.055582713 -0.053643093 0.26583722
0.2201699 -0.14764948 0.06508396 0.10470751 -0.28747493 0.115114346 0.1449908 -0.12880282
0.039450474 -0.02217562 -0.026819872 0.13667406 -0.19951245 -0.22058041 -0.29339007 0.2758817
-0.12253225 0.2132479 0.21736604 -0.17284288 0.29508445 0.04176429 -0.08204632 0.020770214
-0.24204591 0.18538043 -0.032596108 0.25253338 -0.024781939 -0.0038694416 0.0054926374 -0.02591697
-0.27015856 -0.25305134 -0.24390492 -0.25309372 0.17435235 -0.08748021 0.07191096 0.28475526
-0.06102378 0.19737391 -0.14264078 0.0010406729 -0.072658114 -0.23518525 -0.0043265442 0.18185508
0.26954567 0.058708306 -0.21565314 -0.12626015 0.07654696 0.13799906 -0.26729143 -0.22219118
0.025842818 -0.2747598 -0.1197337 -0.09304133 0.31187186 -0.24923953 0.18145798 0.23292978
-0.06555629 -0.23985726 -0.12994996 0.1609341 -0.2752837 -0.11971898 0.288996 -0.07445695
0.28542414 0.03717164 -0.2646114 -0.0040599494 0.28653166 -0.0055856276 -0.09247312 -0.28075007
0.07635845 -0.17601533 -0.29760623 -0.13218066 0.2821915 -0.22249979 -0.09193045 0.04709274
0.0051336153 -0.08753199 -0.13914126 -0.27936685 0.09473582 0.14502077 -0.28787562 -0.14358494
-0.23797426 -0.18948263 -0.16328259 -0.23206778 0.14040315 0.2548046 -0.075789884 0.20547023
-0.22201127 -0.2209598 -0.28540546 -0.061064005 0.17211698 -0.1253251 -0.23298338 0.23172039
0.15492563 0.2533499 -0.15255001 0.12539324 0.25546116 0.23264422 -0.14786887 0.07128009
0.087642886 0.13963665 -0.19065036 -0.049255166 0.2336979 -0.024701905 0.15558507 0.2095488
0.3077814 0.050627362 -0.27187613 -0.003161134 -0.26156533 0.07269593 0.1642828 -0.119079836
-0.1002156 -0.12762761 -0.18976538 -0.2592912 0.21052293 0.11124485 0.011766527 -0.24129626
-0.009521526 0.27066588 0.30438784 -0.008829384 -0.13125166 0.031614065 -0.06316985 -0.27669528
-0.100592956 -0.2634818 0.2477938 0.20704691 -0.06551958 0.07655978 0.014120409 -0.03784395
0.064916216 -0.08420502 -0.21592104 0.11529533 0.037662677 0.25441045 0.08844109 0.1943496
-0.020854697 -0.1541093 0.07310508 -0.23125146 -0.13654006 -0.27294603 -0.05133219 -0.02854998
0.14235751 0.1369349 -0.046276085 0.27579314 -0.25057626 -0.11900214 0.12617551 0.23082064
0.13931519 0.14520513 -0.10268921 -0.042384956 0.23470984 -0.16250527 -0.109179676 0.06287694
0.15334904 -0.29484206 0.13475282 -0.19516523 -0.123871416 -0.30112988 -0.21139726 0.092310406
-0.18139862 0.021575272 -0.13667476 -0.05850759 0.23036525 0.15936942 -0.051948998 0.04401147
-0.033567958 -0.004995009 -0.25507087 -0.14175045 -0.090776406 -0.08726765 -0.2438688 -0.051150452
-0.09590724 0.2786208 0.1769248 0.12970397 -0.16993563 0.23381475 -0.21039462 0.14663646

linear2.weight f4 [3, 256]
00000000: 5806 df3c d994 e53c 2977 bc3c 051a 113c
00000010: cebe e03c c7b6 483c 3c18 fbbc 59e3 d13b
00000020: aa5b 91bb 1b6c d93c 6708 5fbc 061f 843b
00000030: 6428 1a3c 589f d13c 11d9 683d 174d 8abc
00000040: 532a 2a3d 5bc2 ba3c 7942 a63b 4e74 69bc
00000050: 6c3c 43bb 0796 043b eaa1 11bd 352d 4bbb
00000060: b348 b939 3e07 a13b 8f91 43bd d7f0 76bb
00000070: 0f93 3f3c f056 85bd 5c38 4ebb 22c8 0cbd
00000080: 1736 2f3d e643 303d 9989 313d 9772 afbb
00000090: fb8c e13b 3636 73bd 5ae8 75bc f3b8 453d
000000a0: 2491 553d bf8d f23c d2e9 45bc e3a3 f63c
000000b0: 5158 f53c 20a0 61bb d838 9fbd de09 a93c
000000c0: 0d6e c23c a7f0 123d dfe7 a9bc 2bc0 be3c
000000d0: c0f4 56bd e82c a83c fc33 c33c 2ff2 eb3c
000000e0: 84af e2bc 407d b03c b03d cabc d08e 37bd
000000f0: f505 e43c cf46 48bc e351 763d 866f 6bbd
00000100: 8d43 5cbc 2a60 7d3d 36d9 483c 7038 b73b
00000110: e053 213d be19 603a 25b6 6fbd 3a75 2c3d
00000120: 24f0 9dbc e3df 0ebd a945 13bc 9a26 853c
00000130: 4733 18bc 5580 19bd ae66 76bd d369 b33c
00000140: f6c9 beb9 47f6 403d b1c5 013d a3aa 8abc
00000150: 17f8 30bb 71bf e63c f9dc 5cbc 65ca 453c
00000160: fcf2 41bd 5b5e 44bd dd26 143d 4b8d 063d
00000170: a0d3 00bd a1fc 23bc 1eaf 993c 5080 80bb
00000180: 8617 ec3b c1bf 8bbb 1693 133d 8129 153d
00000190: 6c35 4d3d d284 97bd 8330 31bd d27b 5cbd
000001a0: 10b7 33bc 953c f8bc cb92 823b fac1 dfbc
000001b0: dfff 88bd 133e 74bc 70af f23c a715 66bd
000001c0: b2df f43c 5a56 5dbd e8ac 723c 6321 ad3c
000001d0: d060 123d 7e92 9fbc 318e 19bc cbf8 60bb
000001e0: abbf 83bd ed7e 21bd a4d6 dabc 5cb7 51bd
000001f0: 7db7 303d aa94 953c cc3d cebc ab68 8b3d
00000200: 548c 7dbd 6212 34bd cc63 a33c 9d0f c7bc
00000210: e2c6 79bd a8a0 1cbd f6cb 8cbd 4b9c c8bc
00000220: 9c16 21bd 4fbf 143d b2f5 0b3d d70b a33c
00000230: ad07 8bbd 198d 38bd c529 b63c 88af c1bc
00000240: 4188 f13b d6af bdbc 5628 bd3a 87e6 2f3d
00000250: 078c 8abd ffd5 843c d880 4bbd 2745 ed3a
00000260: 4d3b 3d3d 64a2 25bd c57a 173c b7fe 833c
00000270: ea57 d0bb 396f 76bb 4845 b83c 9dff 2e3d
00000280: 4563 5bbd 2930 4a3d f40c 09bc 674a 033c
00000290: 8c17 bd3c d382 d7ba 1a23 f2bb cef6 48bd
000002a0: 58bb 06bd aaa7 8abd 0789 8f3d 76a6 9abd
000002b0: c836 043d c441 093d bd7f 543d 6582 17bd
000002c0: 4093 293d 2823 84bd f552 42bd 02f7 fb3c
000002d0: ef95 273c 9b37 79bc 8894 d73c 148b 9bbb
000002e0: f958 84bc bb61 233d 236c 5c3c f29f 16bd
000002f0: b447 d0bc be00 4ebd 31a2 b0bc 3e75 073d
00000300: 4258 c93c 11f3 08bd 7e9d 50bd 302b 8fbd
00000310: a6d1 1dbd b9d7 383d 7cc9 d1bc 43b4 abbc
00000320: 23c8 60bd 6099 04bc cf08 84bb 60a5 a13b
00000330: 0877 06bd 98f3 33bc bf53 18bd 04dc c43c
00000340: 2976 653c c9a7 003c b471 8c3c b3da 1c3d
00000350: 382d 543c fe63 ce3c 772d 683c 3edd 163c
00000360: d525 78bc 9cea 143c ac73 093d c45a 61bd
00000370: 4503 0e3d f000 a2bc b53f 5cbd 4a12 18bd
00000380: 35d5 46bd ccd8 cabc 036b 83bb a50d 8bbd
00000390: ec2a 0b3d 38d5 03bc 5a91 4a3d 2031 c7bc
000003a0: 7f88 0d3d 999e 3fbd 9730 17bd b878 21bd
000003b0: 28a4 65bd bebe 1ebd b49f 343d 6b59 1abc
000003c0: b53b a8bc fc59 9e3d edc2 523c 0671 3cbd
000003d0: dfb1 203d f0b5 403c e1e9 e03c c3d5 3a3d
000003e0: 03d3 4bbd a4fd f9bc 63dc 47bd e21f 48bd
000003f0: 4af3 84bd 0c00 69bd 60e9 8abc 2946 dd3c
0.027224705 0.028025078 0.023006039 0.008856301 0.027434733 0.012250609 -0.030651204 0.006405276
-0.004435976 0.026540807 -0.013612843 0.0040320186 0.009409044 0.025588676 0.056847636 -0.016882462
0.04154427 0.022797754 0.005073842 -0.014248921 -0.0029790653 0.0020231025 -0.035554804 -0.0031002287
0.00035340115 0.0049141934 -0.047746237 -0.0037680173 0.011692776 -0.06510723 -0.0031466698 -0.03437055
0.042776193 0.043033503 0.043344114 -0.0053542363 0.0068832613 -0.05937787 -0.01500901 0.048272084
0.05214037 0.029608605 -0.012079673 0.030107444 0.02994934 -0.0034427717 -0.07774514 0.020634588
0.023734117 0.035874035 -0.020740448 0.023284992 -0.052479506 0.020529225 0.023828499 0.028802006
-0.027671583 0.021544099 -0.024687618 -0.04481393 0.027834872 -0.012223913 0.060136687 -0.057479404
-0.01344384 0.061859287 0.012258818 0.0055914447 0.03938663 0.0008548758 -0.058523316 0.042103983
-0.019279547 -0.034881484 -0.008988776 0.016253758 -0.009289569 -0.037475903 -0.060156517 0.021901047
-0.00036390097 0.04710987 0.031682674 -0.016927069 -0.0027003342 0.028167458 -0.013480418 0.01207218
-0.04735087 -0.047941547 0.036169875 0.03284959 -0.03145182 -0.010008962 0.01876026 -0.003921546
0.0072049526 -0.004264802 0.036028944 0.036416534 0.050099775 -0.0739838 -0.043259155 -0.05382902
-0.0109689385 -0.030302325 0.0039847842 -0.027314175 -0.066894285 -0.014907378 0.02962467 -0.056172993
0.029891822 -0.05403743 0.014811732 0.021134084 0.03573686 -0.019479033 -0.00937228 -0.003432798
-0.06433042 -0.039427686 -0.026713677 -0.051200256 0.043143738 0.018259365 -0.025175951 0.06807073
-0.061901405 -0.043962844 0.019945048 -0.024299437 -0.060980685 -0.03823915 -0.0687484 -0.024488589
-0.039328203 0.03631526 0.03416986 0.019903107 -0.067885734 -0.045056436 0.022236714 -0.02364327
0.007370979 -0.023155134 0.0014431577 0.042944457 -0.06764989 0.016215323 -0.04968342 0.0018102274
0.04619913 -0.04043807 0.009245579 0.016112668 -0.0063581364 -0.0037602915 0.022493973 0.04272424
-0.053561468 0.049362335 -0.008364905 0.008013344 0.023082517 -0.0016442187 -0.0073894383 -0.049063496
-0.03289351 -0.06770261 0.07008558 -0.07551281 0.032278806 0.033509985 0.051879633 -0.03698959
0.041400194 -0.06452018 -0.047442395 0.030757431 0.010228618 -0.015211011 0.026315942 -0.004746804
-0.016155707 0.039888125 0.013453516 -0.03677363 -0.025424816 -0.050293677 -0.021561714 0.033070795
0.024578217 -0.03343493 -0.050931446 -0.06990659 -0.038530014 0.045127604 -0.02560877 -0.020959979
-0.054878365 -0.008093208 -0.0040293704 0.0049330443 -0.03282836 -0.01098337 -0.03718924 0.024030693
0.014005222 0.007852503 0.017144062 0.038294505 0.012950234 0.025194164 0.014170996 0.009208022
-0.015145739 0.009089138 0.03355758 -0.0550182 0.034671087 -0.019775838 -0.053771693 -0.037126817
-0.048543174 -0.02476158 -0.0040105595 -0.06789712 0.03397648 -0.008046441 0.049455024 -0.024315417
0.034554 -0.04678211 -0.036911573 -0.039421767 -0.056064755 -0.038756125 0.044097617 -0.009420733
-0.020536283 0.07732007 0.012863857 -0.046006225 0.03923213 0.011762127 0.027455272 0.045614015
-0.049761783 -0.030516453 -0.04879416 -0.04885853 -0.06491716 -0.05688481 -0.016956985 0.027010994

linear2.bias f4 [3]
00000000: e7b4 593c d838 9a3c 0425 ba3c
0.013287759 0.018825933 0.022722729
